…
    ENABLED: false
    FLIP: true
    MAX_SIZE: 4000
    MIN_SIZES:
    - 400
    - 500
    - 600
    - 700
    - 800
    - 900
    - 1000
    - 1100
    - 1200
  DETECTIONS_PER_IMAGE: 100
  EVAL_PERIOD: 0
  EXPECTED_RESULTS: []
  KEYPOINT_OKS_SIGMAS: []
  PRECISE_BN:
    ENABLED: false
    NUM_ITER: 200
VERSION: 2
VIS_PERIOD: 0

[32m[11/07 16:28:45 detectron2]: [0mFull config saved to ./results/COCO/dh/dh_r50_fpn_COCO_concepts_cat/config.yaml
Loading pre-trained concepts embeddings. 
[32m[11/07 16:28:53 d2.engine.defaults]: [0mModel:
CATSS(
  (backbone): DyHead(
    (backbone): FPN(
      (fpn_lateral3): Conv2d(512, 256, kernel_size=(1, 1), stride=(1, 1))
      (fpn_output3): Conv2d(256, 256, kernel_size=(3, 3), stride=(1, 1), padding=(1, 1))
      (fpn_lateral4): Conv2d(1024, 256, kernel_size=(1, 1), stride=(1, 1))
      (fpn_output4): Conv2d(256, 256, kernel_size=(3, 3), stride=(1, 1), padding=(1, 1))
      (fpn_lateral5): Conv2d(2048, 256, kernel_size=(1, 1), stride=(1, 1))
      (fpn_output5): Conv2d(256, 256, kernel_size=(3, 3), stride=(1, 1), padding=(1, 1))
      (top_block): LastLevelP6P7(
        (p6): Conv2d(256, 256, kernel_size=(3, 3), stride=(2, 2), padding=(1, 1))
        (p7): Conv2d(256, 256, kernel_size=(3, 3), stride=(2, 2), padding=(1, 1))
      )
      (bottom_up): ResNet(
        (stem): BasicStem(
          (conv1): Conv2d(
            3, 64, kernel_size=(7, 7), stride=(2, 2), padding=(3, 3), bias=False
            (norm): FrozenBatchNorm2d(num_features=64, eps=1e-05)
          )
        )
        (res2): Sequential(
          (0): BottleneckBlock(
            (shortcut): Conv2d(
              64, 256, kernel_size=(1, 1), stride=(1, 1), bias=False
              (norm): FrozenBatchNorm2d(num_features=256, eps=1e-05)
            )
            (conv1): Conv2d(
              64, 64, kernel_size=(1, 1), stride=(1, 1), bias=False
              (norm): FrozenBatchNorm2d(num_features=64, eps=1e-05)
            )
            (conv2): Conv2d(
              64, 64, kernel_size=(3, 3), stride=(1, 1), padding=(1, 1), bias=False
              (norm): FrozenBatchNorm2d(num_features=64, eps=1e-05)
            )
            (conv3): Conv2d(
              64, 256, kernel_size=(1, 1), stride=(1, 1), bias=False
              (norm): FrozenBatchNorm2d(num_features=256, eps=1e-05)
            )
          )
          (1): BottleneckBlock(
            (conv1): Conv2d(
              256, 64, kernel_size=(1, 1), stride=(1, 1), bias=False
              (norm): FrozenBatchNorm2d(num_features=64, eps=1e-05)
            )
            (conv2): Conv2d(
              64, 64, kernel_size=(3, 3), stride=(1, 1), padding=(1, 1), bias=False
              (norm): FrozenBatchNorm2d(num_features=64, eps=1e-05)
            )
            (conv3): Conv2d(
              64, 256, kernel_size=(1, 1), stride=(1, 1), bias=False
              (norm): FrozenBatchNorm2d(num_features=256, eps=1e-05)
            )
          )
          (2): BottleneckBlock(
            (conv1): Conv2d(
              256, 64, kernel_size=(1, 1), stride=(1, 1), bias=False
              (norm): FrozenBatchNorm2d(num_features=64, eps=1e-05)
            )
            (conv2): Conv2d(
              64, 64, kernel_size=(3, 3), stride=(1, 1), padding=(1, 1), bias=False
              (norm): FrozenBatchNorm2d(num_features=64, eps=1e-05)
            )
            (conv3): Conv2d(
              64, 256, kernel_size=(1, 1), stride=(1, 1), bias=False
              (norm): FrozenBatchNorm2d(num_features=256, eps=1e-05)
            )
          )
        )
        (res3): Sequential(
          (0): BottleneckBlock(
            (shortcut): Conv2d(
              256, 512, kernel_size=(1, 1), stride=(2, 2), bias=False
              (norm): FrozenBatchNorm2d(num_features=512, eps=1e-05)
            )
            (conv1): Conv2d(
              256, 128, kernel_size=(1, 1), stride=(2, 2), bias=False
              (norm): FrozenBatchNorm2d(num_features=128, eps=1e-05)
            )
            (conv2): Conv2d(
              128, 128, kernel_size=(3, 3), stride=(1, 1), padding=(1, 1), bias=False
              (norm): FrozenBatchNorm2d(num_features=128, eps=1e-05)
            )
            (conv3): Conv2d(
              128, 512, kernel_size=(1, 1), stride=(1, 1), bias=False
              (norm): FrozenBatchNorm2d(num_features=512, eps=1e-05)
            )
          )
          (1): BottleneckBlock(
            (conv1): Conv2d(
              512, 128, kernel_size=(1, 1), stride=(1, 1), bias=False
              (norm): FrozenBatchNorm2d(num_features=128, eps=1e-05)
            )
            (conv2): Conv2d(
              128, 128, kernel_size=(3, 3), stride=(1, 1), padding=(1, 1), bias=False
              (norm): FrozenBatchNorm2d(num_features=128, eps=1e-05)
            )
            (conv3): Conv2d(
              128, 512, kernel_size=(1, 1), stride=(1, 1), bias=False
              (norm): FrozenBatchNorm2d(num_features=512, eps=1e-05)
            )
          )
          (2): BottleneckBlock(
            (conv1): Conv2d(
              512, 128, kernel_size=(1, 1), stride=(1, 1), bias=False
              (norm): FrozenBatchNorm2d(num_features=128, eps=1e-05)
            )
            (conv2): Conv2d(
              128, 128, kernel_size=(3, 3), stride=(1, 1), padding=(1, 1), bias=False
              (norm): FrozenBatchNorm2d(num_features=128, eps=1e-05)
            )
            (conv3): Conv2d(
              128, 512, kernel_size=(1, 1), stride=(1, 1), bias=False
              (norm): FrozenBatchNorm2d(num_features=512, eps=1e-05)
            )
          )
          (3): BottleneckBlock(
            (conv1): Conv2d(
              512, 128, kernel_size=(1, 1), stride=(1, 1), bias=False
              (norm): FrozenBatchNorm2d(num_features=128, eps=1e-05)
            )
            (conv2): Conv2d(
              128, 128, kernel_size=(3, 3), stride=(1, 1), padding=(1, 1), bias=False
              (norm): FrozenBatchNorm2d(num_features=128, eps=1e-05)
            )
            (conv3): Conv2d(
              128, 512, kernel_size=(1, 1), stride=(1, 1), bias=False
              (norm): FrozenBatchNorm2d(num_features=512, eps=1e-05)
            )
          )
        )
        (res4): Sequential(
          (0): BottleneckBlock(
            (shortcut): Conv2d(
              512, 1024, kernel_size=(1, 1), stride=(2, 2), bias=False
              (norm): FrozenBatchNorm2d(num_features=1024, eps=1e-05)
            )
            (conv1): Conv2d(
              512, 256, kernel_size=(1, 1), stride=(2, 2), bias=False
              (norm): FrozenBatchNorm2d(num_features=256, eps=1e-05)
            )
            (conv2): Conv2d(
              256, 256, kernel_size=(3, 3), stride=(1, 1), padding=(1, 1), bias=False
              (norm): FrozenBatchNorm2d(num_features=256, eps=1e-05)
            )
            (conv3): Conv2d(
              256, 1024, kernel_size=(1, 1), stride=(1, 1), bias=False
              (norm): FrozenBatchNorm2d(num_features=1024, eps=1e-05)
            )
          )
          (1): BottleneckBlock(
            (conv1): Conv2d(
              1024, 256, kernel_size=(1, 1), stride=(1, 1), bias=False
              (norm): FrozenBatchNorm2d(num_features=256, eps=1e-05)
            )
            (conv2): Conv2d(
              256, 256, kernel_size=(3, 3), stride=(1, 1), padding=(1, 1), bias=False
              (norm): FrozenBatchNorm2d(num_features=256, eps=1e-05)
            )
            (conv3): Conv2d(
              256, 1024, kernel_size=(1, 1), stride=(1, 1), bias=False
              (norm): FrozenBatchNorm2d(num_features=1024, eps=1e-05)
            )
          )
          (2): BottleneckBlock(
            (conv1): Conv2d(
              1024, 256, kernel_size=(1, 1), stride=(1, 1), bias=False
              (norm): FrozenBatchNorm2d(num_features=256, eps=1e-05)
            )
            (conv2): Conv2d(
              256, 256, kernel_size=(3, 3), stride=(1, 1), padding=(1, 1), bias=False
              (norm): FrozenBatchNorm2d(num_features=256, eps=1e-05)
            )
            (conv3): Conv2d(
              256, 1024, kernel_size=(1, 1), stride=(1, 1), bias=False
              (norm): FrozenBatchNorm2d(num_features=1024, eps=1e-05)
            )
          )
          (3): BottleneckBlock(
            (conv1): Conv2d(
              1024, 256, kernel_size=(1, 1), stride=(1, 1), bias=False
              (norm): FrozenBatchNorm2d(num_features=256, eps=1e-05)
            )
            (conv2): Conv2d(
              256, 256, kernel_size=(3, 3), stride=(1, 1), padding=(1, 1), bias=False
              (norm): FrozenBatchNorm2d(num_features=256, eps=1e-05)
            )
            (conv3): Conv2d(
              256, 1024, kernel_size=(1, 1), stride=(1, 1), bias=False
              (norm): FrozenBatchNorm2d(num_features=1024, eps=1e-05)
            )
          )
          (4): BottleneckBlock(
            (conv1): Conv2d(
              1024, 256, kernel_size=(1, 1), stride=(1, 1), bias=False
              (norm): FrozenBatchNorm2d(num_features=256, eps=1e-05)
            )
            (conv2): Conv2d(
              256, 256, kernel_size=(3, 3), stride=(1, 1), padding=(1, 1), bias=False
              (norm): FrozenBatchNorm2d(num_features=256, eps=1e-05)
            )
            (conv3): Conv2d(
              256, 1024, kernel_size=(1, 1), stride=(1, 1), bias=False
              (norm): FrozenBatchNorm2d(num_features=1024, eps=1e-05)
            )
          )
          (5): BottleneckBlock(
            (conv1): Conv2d(
              1024, 256, kernel_size=(1, 1), stride=(1, 1), bias=False
              (norm): FrozenBatchNorm2d(num_features=256, eps=1e-05)
            )
            (conv2): Conv2d(
              256, 256, kernel_size=(3, 3), stride=(1, 1), padding=(1, 1), bias=False
              (norm): FrozenBatchNorm2d(num_features=256, eps=1e-05)
            )
            (conv3): Conv2d(
              256, 1024, kernel_size=(1, 1), stride=(1, 1), bias=False
              (norm): FrozenBatchNorm2d(num_features=1024, eps=1e-05)
            )
          )
        )
        (res5): Sequential(
          (0): BottleneckBlock(
            (shortcut): Conv2d(
              1024, 2048, kernel_size=(1, 1), stride=(2, 2), bias=False
              (norm): FrozenBatchNorm2d(num_features=2048, eps=1e-05)
            )
            (conv1): Conv2d(
              1024, 512, kernel_size=(1, 1), stride=(2, 2), bias=False
              (norm): FrozenBatchNorm2d(num_features=512, eps=1e-05)
            )
            (conv2): Conv2d(
              512, 512, kernel_size=(3, 3), stride=(1, 1), padding=(1, 1), bias=False
              (norm): FrozenBatchNorm2d(num_features=512, eps=1e-05)
            )
            (conv3): Conv2d(
              512, 2048, kernel_size=(1, 1), stride=(1, 1), bias=False
              (norm): FrozenBatchNorm2d(num_features=2048, eps=1e-05)
            )
          )
          (1): BottleneckBlock(
            (conv1): Conv2d(
              2048, 512, kernel_size=(1, 1), stride=(1, 1), bias=False
              (norm): FrozenBatchNorm2d(num_features=512, eps=1e-05)
            )
            (conv2): Conv2d(
              512, 512, kernel_size=(3, 3), stride=(1, 1), padding=(1, 1), bias=False
              (norm): FrozenBatchNorm2d(num_features=512, eps=1e-05)
            )
            (conv3): Conv2d(
              512, 2048, kernel_size=(1, 1), stride=(1, 1), bias=False
              (norm): FrozenBatchNorm2d(num_features=2048, eps=1e-05)
            )
          )
          (2): BottleneckBlock(
            (conv1): Conv2d(
              2048, 512, kernel_size=(1, 1), stride=(1, 1), bias=False
              (norm): FrozenBatchNorm2d(num_features=512, eps=1e-05)
            )
            (conv2): Conv2d(
              512, 512, kernel_size=(3, 3), stride=(1, 1), padding=(1, 1), bias=False
              (norm): FrozenBatchNorm2d(num_features=512, eps=1e-05)
            )
            (conv3): Conv2d(
              512, 2048, kernel_size=(1, 1), stride=(1, 1), bias=False
              (norm): FrozenBatchNorm2d(num_features=2048, eps=1e-05)
            )
          )
        )
      )
    )
    (dyhead_tower): Sequential(
      (0): DyConv(
        (DyConv): ModuleList(
          (0): Conv3x3Norm(
            (conv): ModulatedDeformConv(in_channels=256, out_channels=256, kernel_size=(3, 3), stride=1, dilation=1, padding=1, groups=1, deformable_groups=1, bias=True)
…
            (conv): ModulatedDeformConv(in_channels=256, out_channels=256, kernel_size=(3, 3), stride=1, dilation=1, padding=1, groups=1, deformable_groups=1, bias=True)
            (bn): GroupNorm(16, 256, eps=1e-05, affine=True)
          )
          (2): Conv3x3Norm(
            (conv): ModulatedDeformConv(in_channels=256, out_channels=256, kernel_size=(3, 3), stride=2, dilation=1, padding=1, groups=1, deformable_groups=1, bias=True)
            (bn): GroupNorm(16, 256, eps=1e-05, affine=True)
          )
        )
        (AttnConv): Sequential(
          (0): AdaptiveAvgPool2d(output_size=1)
          (1): Conv2d(256, 1, kernel_size=(1, 1), stride=(1, 1))
          (2): ReLU(inplace=True)
        )
        (h_sigmoid): h_sigmoid(
          (relu): ReLU6(inplace=True)
        )
        (relu): DYReLU(
          (avg_pool): AdaptiveAvgPool2d(output_size=1)
          (fc): Sequential(
            (0): Linear(in_features=256, out_features=64, bias=True)
            (1): ReLU(inplace=True)
            (2): Linear(in_features=64, out_features=1024, bias=True)
            (3): h_sigmoid(
              (relu): ReLU6(inplace=True)
            )
          )
        )
        (offset): Conv2d(256, 27, kernel_size=(3, 3), stride=(1, 1), padding=(1, 1))
      )
    )
  )
  (head): CATSSHead(
    (cls_tower): Sequential(
      (0): Conv2d(512, 512, kernel_size=(3, 3), stride=(1, 1), padding=(1, 1))
      (1): GroupNorm(32, 512, eps=1e-05, affine=True)
      (2): ReLU()
      (3): Conv2d(512, 512, kernel_size=(3, 3), stride=(1, 1), padding=(1, 1))
      (4): GroupNorm(32, 512, eps=1e-05, affine=True)
      (5): ReLU()
    )
    (bbox_tower): Sequential(
      (0): Conv2d(512, 512, kernel_size=(3, 3), stride=(1, 1), padding=(1, 1))
      (1): GroupNorm(32, 512, eps=1e-05, affine=True)
      (2): ReLU()
      (3): Conv2d(512, 512, kernel_size=(3, 3), stride=(1, 1), padding=(1, 1))
      (4): GroupNorm(32, 512, eps=1e-05, affine=True)
      (5): ReLU()
    )
    (cls_logits): Conv2d(512, 80, kernel_size=(1, 1), stride=(1, 1))
    (bbox_pred): Conv2d(512, 4, kernel_size=(1, 1), stride=(1, 1))
    (centerness): Conv2d(512, 1, kernel_size=(1, 1), stride=(1, 1))
    (scales): ModuleList(
      (0): Scale()
      (1): Scale()
      (2): Scale()
      (3): Scale()
      (4): Scale()
    )
  )
  (centerness_loss_func): BCEWithLogitsLoss()
  (classification_loss_func): SigmoidFocalLoss(gamma=2.0, alpha=0.25)
  (anchor_generator): DefaultAnchorGenerator(
    (cell_anchors): BufferList()
  )
  (concept_net): ConceptNet(
    (concept_vocab): Vocab()
    (concept_emb): Embedding(82116, 150)
    (deepset): _DeepSets(
      (mlp1): MLP(
        (layers): ModuleList(
          (0): Linear(in_features=150, out_features=150, bias=True)
          (1): Linear(in_features=150, out_features=150, bias=True)
          (2): Linear(in_features=150, out_features=150, bias=True)
        )
      )
      (mlp2): MLP(
        (layers): ModuleList(
          (0): Linear(in_features=150, out_features=150, bias=True)
          (1): Linear(in_features=150, out_features=256, bias=True)
        )
      )
    )
  )
)
[32m[11/07 16:28:53 fvcore.common.checkpoint]: [0m[Checkpointer] Loading from ./results/COCO/dh/dh_r50_fpn_COCO_concepts_cat/model_final.pth ...
Load concept for each category. 
[32m[11/07 16:28:57 d2.data.build]: [0mRemoved 48 images with no usable annotations. 4952 images left.
[32m[11/07 16:28:57 d2.data.build]: [0mDistribution of instances among all 80 categories:
…
